member1_gnn/trained_model.pth (torch, 3097 bytes, 4 tensors)

conv1.bias f4 [16]
000000 00 00 00 00 a3 b8 33 bd 20 fe 55 3d ab 24 85 bd
       0.0 -0.043877255 0.052244306 -0.065011345
000010 d6 8e 8f bd 00 00 00 00 00 00 00 00 af 84 85 bd
       -0.07009666 0.0 0.0 -0.06519448
000020 8a c9 5e 3d 33 89 3a 3d eb b4 8c bd 32 08 4e 3d
       0.05439142 0.045541 -0.06870445 0.050300784
000030 00 00 00 00 ee a2 83 bd f9 47 83 bd 09 e6 5e 3d
       0.0 -0.06427561 -0.06410212 0.054418597

conv1.lin.weight f4 [16, 4]
000000 c0 8d 39 bd 00 1f a2 3d f1 fa d2 be 00 df f8 bb
       -0.0453012 0.07916069 -0.41207078 -0.007594943
000010 0b 1e 2a 3d 24 18 c7 3e 2e 07 ac 3e 3d 80 74 bd
       0.041532557 0.38885605 0.33599228 -0.05969261
000020 e6 f2 fa be 06 01 0e 3f 9e 9d d2 3e 18 e1 66 be
       -0.49013442 0.5547031 0.41135877 -0.22546804
000030 d1 65 cf be 66 3b de be 99 0f b5 3e 41 af 74 be
       -0.40507367 -0.43404692 0.35363463 -0.23894979
000040 6c c3 ed be 05 b5 08 bf a7 ea f0 3e 27 8a 80 be
       -0.46438158 -0.53401214 0.47054026 -0.25105402
000050 c0 2d fb 3e 90 a1 83 3d 05 39 e6 be 54 87 55 be
       0.49058342 0.064273 -0.44965377 -0.20852405
000060 15 13 8e be 00 24 1f ba f7 95 95 be 3c 54 7b be
       -0.27748933 -0.0006070733 -0.29215977 -0.24543852
000070 74 f0 9b be 07 dc b5 be 96 53 a3 bd 1c 6b 51 3e
       -0.3045689 -0.3551943 -0.07974927 0.20451015
000080 54 45 df bd b9 61 2f be 56 12 d8 3e 17 f9 e1 3d
       -0.10901895 -0.17127122 0.4220149 0.11033838
000090 e6 a4 f7 3d 6c af bd be 07 79 8c be 02 5a c2 3e
       0.12091999 -0.370479 -0.27436087 0.37959296
0000a0 fc 66 3c be 74 19 d5 3e f0 89 18 3d 15 5f 4a be
       -0.1839866 0.41620982 0.037240922 -0.19762833
0000b0 82 ea 11 3e 2e a1 dc 3e 46 db c5 3e 29 65 e5 bc
       0.14249614 0.4309172 0.38643855 -0.028002338
0000c0 78 f5 07 3f bc 6e 03 3f 58 d1 6a be 80 a4 13 be
       0.5310893 0.5134084 -0.22931421 -0.1441822
0000d0 48 73 93 3e 72 96 6f be 8b 93 cc 3e c7 75 9e bd
       0.2879889 -0.23397234 0.39956316 -0.07737308
0000e0 d1 b8 cf 3e 2f 61 74 3e d2 ad 92 3d 61 63 05 3e
       0.4057069 0.23865198 0.0716206 0.13026191
0000f0 bf 38 b9 3d 60 79 42 be 04 e2 94 3c 9c a8 f3 3e
       0.090440266 -0.18991613 0.018174179 0.47589576

conv2.bias f4 [2]
000000 1a 62 79 3d 1a 62 79 bd
       0.060884573 -0.060884573

conv2.lin.weight f4 [2, 16]
000000 a0 9f 5c bd d6 ee ec 3e 9b 05 d0 3d 33 4f f6 be
       -0.053863168 0.46275967 0.10157319 -0.481073
000010 98 d7 f9 bc e4 f4 dd be 0a ee 28 be b9 02 e7 be
       -0.03049831 -0.433509 -0.16497055 -0.45119265
000020 2d e0 f8 3e 43 de 21 3f 27 26 c0 be 1b 64 52 be
       0.48608533 0.6322977 -0.37529108 -0.20546
000030 a0 f6 09 3e 68 5c be 3d 9e f2 49 3d df 34 d1 3e
       0.13472986 0.09294969 0.049303643 0.4086065
000040 c8 76 86 bd f0 29 c2 3e a7 50 b1 be 7b f9 97 be
       -0.065656245 0.3792262 -0.34631845 -0.29682526
000050 98 32 a9 3c 84 60 8b 3e 54 8c 89 3e 1d 3a d3 3e
       0.020654008 0.27222073 0.26864874 0.41255274
000060 16 7e 7b 3e 46 0f fb 3e a1 e8 c0 3e ea 5f bd be
       0.24559817 0.4903509 0.37677482 -0.3698724
000070 8a be 7a be 35 2e c7 3e 2a ed bb 3e be fd 1d 3e
       -0.24486747 0.3890244 0.3670438 0.15428826
